…
epochs:2000
eval_freq:100
decoder_save_model:./checkpoint/DB15K/trained_model.pth
dim:256
r_dim:256
layer_nums:4
batch_size:1024
save:1
n_exp:3
mu:0.0001
img_dim:256
txt_dim:256
lr:0.0005
dropout_gat:0.3
dropout:0.3
cuda:0
weight_decay_gat:1e-05
weight_decay:0
seed:10010
model:RMoE
num_layers:3
k_w:16
k_h:16
n_heads:2
dataset:DB15K
encoder:0
image_features:1
text_features:1
patience:5
lr_reduce_freq:500
gamma:1.0
bias:1
neg_num:2
neg_num_gat:2
alpha:0.2
alpha_gat:0.2
out_channels:32
kernel_size:3
Using: cuda:0
Training data 79222
Multi_MoE(
  (entity_embeddings): Embedding(12842, 256)
  (relation_embeddings): Embedding(558, 256)
  (img_entity_embeddings): Embedding(12842, 256)
  (img_relation_embeddings): Embedding(558, 256)
  (txt_entity_embeddings): Embedding(12842, 256)
  (txt_relation_embeddings): Embedding(558, 256)
  (visual_moe): MoEAdaptorLayer(
    (experts): ModuleList(
      (0-2): 3 x PWLayer(
        (dropout): Dropout(p=0.0, inplace=False)
        (lin): Linear(in_features=256, out_features=256, bias=True)
      )
    )
    (norm): RMSNorm()
  )
  (text_moe): MoEAdaptorLayer(
    (experts): ModuleList(
      (0-2): 3 x PWLayer(
        (dropout): Dropout(p=0.0, inplace=False)
        (lin): Linear(in_features=256, out_features=256, bias=True)
      )
    )
    (norm): RMSNorm()
  )
  (structure_moe): MoEAdaptorLayer(
    (experts): ModuleList(
      (0-2): 3 x PWLayer(
        (dropout): Dropout(p=0.0, inplace=False)
        (lin): Linear(in_features=256, out_features=256, bias=True)
      )
    )
    (norm): RMSNorm()
  )
  (mm_moe): MoEAdaptorLayer(
    (experts): ModuleList(
      (0-2): 3 x PWLayer(
        (dropout): Dropout(p=0.0, inplace=False)
        (lin): Linear(in_features=256, out_features=256, bias=True)
      )
    )
    (norm): RMSNorm()
  )
  (fuse_e): ModalFusionLayer(
    (modal1_layers): ModuleList(
      (0-1): 2 x Sequential(
        (0): Dropout(p=0.2, inplace=False)
        (1): Linear(in_features=256, out_features=256, bias=True)
        (2): ReLU()
      )
    )
    (modal2_layers): ModuleList(
      (0-1): 2 x Sequential(
        (0): Dropout(p=0.2, inplace=False)
        (1): Linear(in_features=256, out_features=256, bias=True)
        (2): ReLU()
      )
    )
    (modal3_layers): ModuleList(
      (0-1): 2 x Sequential(
        (0): Dropout(p=0.2, inplace=False)
        (1): Linear(in_features=256, out_features=256, bias=True)
        (2): ReLU()
      )
    )
    (ent_attn): Linear(in_features=256, out_features=1, bias=False)
    (final_norm): RMSNorm()
  )
  (fuse_r): ModalFusionLayer(
    (modal1_layers): ModuleList(
      (0-1): 2 x Sequential(
        (0): Dropout(p=0.2, inplace=False)
        (1): Linear(in_features=256, out_features=256, bias=True)
        (2): ReLU()
      )
    )
    (modal2_layers): ModuleList(
      (0-1): 2 x Sequential(
        (0): Dropout(p=0.2, inplace=False)
        (1): Linear(in_features=256, out_features=256, bias=True)
        (2): ReLU()
      )
    )
    (modal3_layers): ModuleList(
      (0-1): 2 x Sequential(
        (0): Dropout(p=0.2, inplace=False)
        (1): Linear(in_features=256, out_features=256, bias=True)
        (2): ReLU()
      )
    )
    (ent_attn): Linear(in_features=256, out_features=1, bias=False)
    (final_norm): RMSNorm()
  )
  (bceloss): BCELoss()
)
Total number of parameters: 11889194
  5%|███▌                                                                   | 99/2000 [11:45<3:40:43,  6.97s/it]Epoch数量 0100 , 平均损失 0.7182

  5%|██▌                                                  | 99/2000 [11:53<3:40:43,  6.97s/it, loss=main: 53.15]==================================第 1 次评估========================================
…
